result/Exp_Ollie_d8_w256_0to1/checkpoints/ann_model.pth (torch, 3044 bytes, 2 tensors)

rgb_linear.weight f4 [3, 128]
0.012445047 -0.01973447 -0.037477996 0.0044498984 -0.027698608 0.014793515 -0.03755905 -0.058274288
0.042764295 -0.05131451 0.001055533 -0.1517729 0.021343261 0.07135452 0.049180757 0.11193575
0.033647954 0.043141898 0.042365097 -0.061759014 -0.175798 0.031971984 -0.017132573 -0.016455399
-0.079080254 -0.012595093 -0.03991594 0.011527994 0.100569725 0.07546971 -0.06797561 -0.02295025
-0.060271904 -0.013630078 0.07324673 0.034341257 -0.004660293 -0.03272407 0.02493063 0.110847406
0.027690418 -0.05008706 0.091037996 -0.053951267 -0.085349455 0.026135417 -0.010163466 0.036321543
-0.04535707 -0.08663392 0.056876265 -0.034938358 0.06192254 -0.106119655 -0.0040404955 -0.1485671
-0.009754445 -0.043251656 0.18634364 0.057021763 0.018631713 0.039343573 -0.04428683 0.036626503
-0.06272871 -0.033378217 -0.064966 0.07340045 0.021502374 -0.012556082 -0.21025711 0.003925528
-0.025564922 -0.01602452 0.0026608445 -0.072563164 -0.066652864 0.061064877 -0.037171926 0.010097258
-0.010392581 0.033254184 0.017866377 -0.08207078 0.004064303 -0.03825655 0.3612671 -0.036207046
0.03655206 -0.052640177 0.021248538 -0.038067672 0.04259883 -0.004455242 -0.022249926 0.058045972
-0.023537582 -0.07858163 0.102499865 0.05354263 -0.03935774 0.027234334 0.029045414 0.050690413
0.06782248 -0.010718205 -0.048565652 -0.035529796 -0.032461286 -0.047661766 -0.05428638 0.09319235
0.035341848 0.001561786 0.0689392 0.033203032 -0.0032354293 0.092018 0.056862783 -0.015296075
0.108689345 -0.09377758 -0.065300345 0.017148724 -0.048059322 0.024573842 -0.117109254 -0.051909637
0.021299765 -0.008189611 -0.10948896 -0.019966872 -0.011281622 0.0020464333 -0.07091788 -0.026590819
0.058174744 -0.050539307 0.065037794 -0.11821679 0.029497126 0.016876152 0.044326797 0.097661376
0.03334706 0.04676748 0.021247758 -0.046888527 -0.081769064 -0.05162253 -0.071782455 -0.053533494
-0.065074 0.048518203 -0.011238228 0.0019488969 -0.06368048 0.12525442 -0.06682063 -0.022548724
-0.048878804 -0.028863106 0.16375051 0.04280903 -0.041818153 -0.03304754 0.06416795 0.09509185
0.039231382 -0.053790133 0.088835746 -0.07577942 0.026681695 0.01164027 -0.025602309 0.048051376
-0.03645942 -0.076695494 -0.020102121 0.05660562 -0.07174809 -0.10990186 -0.017416997 -0.07685641
0.037347645 -0.051986773 0.18711092 0.05297416 -0.15142363 0.021732472 -0.03225747 0.07477571
-0.015129775 -0.0694068 0.031788398 0.12503903 -0.048885982 -0.1521189 -0.1877805 -0.031246
0.0220884 -0.08483067 -0.034298114 -0.061896373 -0.038436178 0.06389918 -0.050873704 -0.035556838
-0.024145944 -0.00021172618 0.049352493 0.048345692 -0.05992786 0.04372052 0.30666408 0.023392983
0.039709084 -0.09018647 -0.008380734 -0.04021902 0.09355749 -0.06337784 0.0520935 0.024199089
-0.055919968 0.010276882 0.11194899 0.026982434 -0.08944819 0.04536592 0.057810016 -0.0717285
-0.05351916 -0.044684876 0.043793503 -0.022014901 -0.059511915 0.02689778 -0.058038384 0.11875149
0.053975224 0.0330885 0.06373911 0.04715801 0.014424087 0.11765981 0.06355614 -0.020100571
0.114520214 -0.018463496 -0.09865562 -0.039225012 -0.057178732 -0.009352065 -0.11191931 0.064406775
00000000: 4fe6 4b3c 2faa a1bc 8782 19bd 74d0 913b
00000010: 31e8 e2bc 8060 723c 85d7 19bd 05b1 6ebd
00000020: 9d29 2f3d 2a2f 52bd cf59 8a3a 5b6a 1bbe
00000030: 10d8 ae3c 5222 923d c371 493d 923e e53d
00000040: 70d2 093d 8fb5 303d 0687 2d3d 05f7 7cbd
00000050: 6404 34be 0ef5 023d 9c59 8cbc 79cd 86bc
00000060: d4f4 a1bd a65b 4ebc e67e 23bd e9df 3c3c
00000070: 80f7 cd3d dd8f 9a3d cc36 8bbd 2a02 bcbc
00000080: acdf 76bd b150 5fbc 6202 963d 6ba9 0c3d
00000090: 5fb5 98bb ad09 06bd 523b cc3c f703 e33d
000000a0: 04d7 e23c 1728 4dbd 2172 ba3d 01fc 5cbd
000000b0: b2cb aebd f119 d63c ab84 26bc e6c5 143d
000000c0: 56c8 39bd 206d b1bd 16f7 683d 861b 0fbd
000000d0: 7da2 7d3d 4355 d9bd 2266 84bb f921 18be
000000e0: 1cd1 1fbc a628 31bd ded0 3e3e a78f 693d
000000f0: 89a1 983c ba26 213d 1b66 35bd ac05 163d
00000100: e977 80bd 99b7 08bd e50c 85bd fa52 963d
00000110: bf25 b03c 06b8 4dbc a44d 57be b7a1 803b
00000120: 876d d1bc db45 83bc 9061 2e3b ff9b 94bd
00000130: 4c81 88bd 2a1f 7a3d 9741 18bd f86e 253c
00000140: a545 2abc 8a35 083d 825c 923c ba14 a8bd
00000150: d82d 853b e6b2 1cbd 00f8 b83e d74d 14bd
00000160: 9db7 153d 3a9d 57bd 6a11 ae3c d9ec 1bbd
00000170: 1c7c 2e3d 47fd 91bb 7a45 b6bc 9dc1 6d3d
00000180: e3d1 c0bc 68ef a0bd 73eb d13d 844f 5b3d
00000190: 9535 21bd 8a1a df3c a6f0 ed3c c0a0 4f3d
000001a0: 83e6 8a3d 699b 2fbc c7ec 46bd b187 11bd
000001b0: 20f6 04bd fc38 43bd 655b 5ebd a1db be3d
000001c0: 9dc2 103d d8b4 cc3a ff2f 8d3d e7ff 073d
000001d0: 7f09 54bb ef73 bc3d f3e8 683d 639c 7abc
000001e0: 8598 de3d 760e c0bd 30bc 85bd 7b7b 8c3c
000001f0: dad9 44bd 154f c93c fad6 efbd 339f 54bd
00000200: d87c ae3c b82d 06bc bf3b e0bd 9191 a3bc
00000210: 8dd6 38bc 741d 063b 653d 91bd fdd4 d9bc
00000220: a448 6e3d 4e02 4fbd 8932 853d a51b f2bd
00000230: f5a3 f13c db3f 8a3c 0490 353d b002 c83d
00000240: ed96 083d 428f 3f3d c70f ae3c 2f0e 40bd
00000250: 8a76 a7bd 2572 53bd ae02 93bd f045 5bbd
00000260: 8445 85bd 06bb 463d 8b20 38bc 2172 ff3a
00000270: e96a 82bd b242 003e 41d9 88bd 1ab8 b8bc
00000280: 2435 48bd 5272 ecbc 37ae 273e 8558 2f3d
00000290: 8349 2bbd db5c 07bd 7c6a 833d 84bf c23d
000002a0: 16b1 203d 0b53 5cbd 84ef b53d 3e32 9bbd
000002b0: 9293 da3c d5b6 3e3c efbb d1bc 85d1 443d
000002c0: 7956 15bd 8712 9dbd 34ad a4bc 4bdb 673d
000002d0: aaf0 92bd 3a14 e1bd 17ae 8ebc e566 9dbd
000002e0: d8f9 183d 15f0 54bd 019a 3f3e 6ffb 583d
000002f0: cc0e 1bbe 4c08 b23c 6920 04bd 0224 993d
00000300: e0e2 77bc 2725 8ebd 8d34 023d 3b0a 003e
00000310: ab3c 48bd 0fc5 1bbe 8849 40be 9df7 ffbc
00000320: bbf2 b43c b4bb adbd 2e7c 0cbd 0d87 7dbd
00000330: 416f 1dbd 93dd 823d f260 50bd 0ca4 11bd
00000340: b7cd c5bc d002 5eb9 d725 4a3d 2206 463d
00000350: ea76 75bd 4a14 333d 1303 9d3e a4a2 bf3c
00000360: fea5 223d afb3 b8bd 594f 09bc b3bc 24bd
00000370: 129b bf3d 3ecc 81bd fe5f 553d 2b3d c63c
00000380: 560c 65bd 5e60 283c 8345 e53d 440a dd3c
00000390: 9d30 b7bd 9dd1 393d 32ca 6c3d 64e6 92bd
000003a0: e836 5bbd 7d07 37bd d160 333d 9858 b4bc
000003b0: c4c2 73bd bc58 dc3c a8b9 6dbd fb33 f33d
000003c0: 2015 5d3d cf87 073d a789 823d c228 413d
000003d0: 0153 6c3c a0f7 f03d b929 823d f4a9 a4bc
000003e0: 9389 ea3d c240 97bc f50b cabd 68aa 20bd
000003f0: 3f34 6abd 6739 19bc f435 e5bd b3e7 833d

rgb_linear.bias f4 [3]
0.028267264 -0.017572997 -0.052186295
00000000: c090 e73c 3ff5 8fbc 4cc1 55bd
